…
al_data)\n","        evaluate_saved(net, test_data)\n","\n","\n","if __name__ == \"__main__\":\n","    main()\n","\n","\n"],"metadata":{"colab":{"base_uri":"https://localhost:8080/"},"id":"DxRb1B_0nNeS","executionInfo":{"status":"ok","timestamp":1700370015674,"user_tz":480,"elapsed":5136,"user":{"displayName":"Sarah Viala","userId":"09286103043251652940"}},"outputId":"3676ed62-34b9-40a5-dae8-f176e9c8e066"},"execution_count":null,"outputs":[{"output_type":"stream","name":"stdout","text":["Building model to train: \n","Model Overview: \n","PReFIL(\n","  (rnn): QuestionEncoder(\n","    (embedding): Embedding(51, 32)\n","    (lstm): LSTM(32, 256)\n","  )\n","  (cnn): DenseNetEncoder(\n","    (densenet): DenseNet(\n","      (first_conv): Sequential(\n","        (conv0): Conv2d(3, 64, kernel_size=(7, 7), stride=(2, 2), padding=(3, 3), bias=False)\n","        (norm0): BatchNorm2d(64, eps=1e-05, momentum=0.1, affine=True, track_running_stats=True)\n","        (relu0): ReLU(inplace=True)\n","        (pool0): MaxPool2d(kernel_size=3, stride=2, padding=1, dilation=1, ceil_mode=False)\n","      )\n","      (final_bn): BatchNorm2d(352, eps=1e-05, momentum=0.1, affine=True, track_running_stats=True)\n","      (denseblock): ModuleList(\n","        (0): Sequential(\n","          (dblock0): _DenseBlock(\n","            (denselayer1): _DenseLayer(\n","              (norm1): BatchNorm2d(64, eps=1e-05, momentum=0.1, affine=True, track_running_stats=True)\n","              (relu1): ReLU(inplace=True)\n","              (conv1): Conv2d(64, 128, kernel_size=(1, 1), stride=(1, 1), bias=False)\n","              (norm2): BatchNorm2d(128, eps=1e-05, momentum=0.1, affine=True, track_running_stats=True)\n","              (relu2): ReLU(inplace=True)\n","              (conv2): Conv2d(128, 32, kernel_size=(3, 3), stride=(1, 1), padding=(1, 1), bias=False)\n","            )\n","            (denselayer2): _DenseLayer(\n","              (norm1): BatchNorm2d(96, eps=1e-05, momentum=0.1, affine=True, track_running_stats=True)\n","              (relu1): ReLU(inplace=True)\n","              (conv1): Conv2d(96, 128, kernel_size=(1, 1), stride=(1, 1), bias=False)\n","              (norm2): BatchNorm2d(128, eps=1e-05, momentum=0.1, affine=True, track_running_stats=True)\n","              (relu2): ReLU(inplace=True)\n","              (conv2): Conv2d(128, 32, kernel_size=(3, 3), stride=(1, 1), padding=(1, 1), bias=False)\n","            )\n","            (denselayer3): _DenseLayer(\n","              (norm1): BatchNorm2d(128, eps=1e-05, momentum=0.1, affine=True, track_running_stats=True)\n","              (relu1): ReLU(inplace=True)\n","              (conv1): Conv2d(128, 128, kernel_size=(1, 1), stride=(1, 1), bias=False)\n","              (norm2): BatchNorm2d(128, eps=1e-05, momentum=0.1, affine=True, track_running_stats=True)\n","              (relu2): ReLU(inplace=True)\n","              (conv2): Conv2d(128, 32, kernel_size=(3, 3), stride=(1, 1), padding=(1, 1), bias=False)\n","            )\n","            (denselayer4): _DenseLayer(\n","              (norm1): BatchNorm2d(160, eps=1e-05, momentum=0.1, affine=True, track_running_stats=True)\n","              (relu1): ReLU(inplace=True)\n","              (conv1): Conv2d(160, 128, kernel_size=(1, 1), stride=(1, 1), bias=False)\n","              (norm2): BatchNorm2d(128, eps=1e-05, momentum=0.1, affine=True, track_running_stats=True)\n","              (relu2): ReLU(inplace=True)\n","              (conv2): Conv2d(128, 32, kernel_size=(3, 3), stride=(1, 1), padding=(1, 1), bias=False)\n","            )\n","            (denselayer5): _DenseLayer(\n","              (norm1): BatchNorm2d(192, eps=1e-05, momentum=0.1, affine=True, track_running_stats=True)\n","              (relu1): ReLU(inplace=True)\n","              (conv1): Conv2d(192, 128, kernel_size=(1, 1), stride=(1, 1), bias=False)\n","              (norm2): BatchNorm2d(128, eps=1e-05, momentum=0.1, affine=True, track_running_stats=True)\n","              (relu2): ReLU(inplace=True)\n","              (conv2): Conv2d(128, 32, kernel_size=(3, 3), stride=(1, 1), padding=(1, 1), bias=False)\n","            )\n","            (denselayer6): _DenseLayer(\n","              (norm1): BatchNorm2d(224, eps=1e-05, momentum=0.1, affine=True, track_running_stats=True)\n","              (relu1): ReLU(inplace=True)\n","              (conv1): Conv2d(224, 128, kernel_size=(1, 1), stride=(1, 1), bias=False)\n","              (norm2): BatchNorm2d(128, eps=1e-05, momentum=0.1, affine=True, track_running_stats=True)\n","              (relu2): ReLU(inplace=True)\n","              (conv2): Conv2d(128, 32, kernel_size=(3, 3), stride=(1, 1), padding=(1, 1), bias=False)\n","            )\n","          )\n","          (transition1): _Transition(\n","            (norm): BatchNorm2d(256, eps=1e-05, momentum=0.1, affine=True, track_running_stats=True)\n","            (relu): ReLU(inplace=True)\n","            (conv): Conv2d(256, 128, kernel_size=(1, 1), stride=(1, 1), bias=False)\n","            (pool): AvgPool2d(kernel_size=2, stride=2, padding=0)\n","          )\n","        )\n","        (1): Sequential(\n","          (dblock1): _DenseBlock(\n","            (denselayer1): _DenseLayer(\n","              (norm1): BatchNorm2d(128, eps=1e-05, momentum=0.1, affine=True, track_running_stats=True)\n","              (relu1): ReLU(inplace=True)\n","              (conv1): Conv2d(128, 128, kernel_size=(1, 1), stride=(1, 1), bias=False)\n","              (norm2): BatchNorm2d(128, eps=1e-05, momentum=0.1, affine=True, track_running_stats=True)\n","              (relu2): ReLU(inplace=True)\n","              (conv2): Conv2d(128, 32, kernel_size=(3, 3), stride=(1, 1), padding=(1, 1), bias=False)\n","            )\n","            (denselayer2): _DenseLayer(\n","              (norm1): BatchNorm2d(160, eps=1e-05, momentum=0.1, affine=True, track_running_stats=True)\n","              (relu1): ReLU(inplace=True)\n","              (conv1): Conv2d(160, 128, kernel_size=(1, 1), stride=(1, 1), bias=False)\n","              (norm2): BatchNorm2d(128, eps=1e-05, momentum=0.1, affine=True, track_running_stats=True)\n","              (relu2): ReLU(inplace=True)\n","              (conv2): Conv2d(128, 32, kernel_size=(3, 3), stride=(1, 1), padding=(1, 1), bias=False)\n","            )\n","            (denselayer3): _DenseLayer(\n","              (norm1): BatchNorm2d(192, eps=1e-05, momentum=0.1, affine=True, track_running_stats=True)\n","              (relu1): ReLU(inplace=True)\n","              (conv1): Conv2d(192, 128, kernel_size=(1, 1), stride=(1, 1), bias=False)\n","              (norm2): BatchNorm2d(128, eps=1e-05, momentum=0.1, affine=True, track_running_stats=True)\n","              (relu2): ReLU(inplace=True)\n","              (conv2): Conv2d(128, 32, kernel_size=(3, 3), stride=(1, 1), padding=(1, 1), bias=False)\n","            )\n","            (denselayer4): _DenseLayer(\n","              (norm1): BatchNorm2d(224, eps=1e-05, momentum=0.1, affine=True, track_running_stats=True)\n","              (relu1): ReLU(inplace=True)\n","              (conv1): Conv2d(224, 128, kernel_size=(1, 1), stride=(1, 1), bias=False)\n","              (norm2): BatchNorm2d(128, eps=1e-05, momentum=0.1, affine=True, track_running_stats=True)\n","              (relu2): ReLU(inplace=True)\n","              (conv2): Conv2d(128, 32, kernel_size=(3, 3), stride=(1, 1), padding=(1, 1), bias=False)\n","            )\n","            (denselayer5): _DenseLayer(\n","              (norm1): BatchNorm2d(256, eps=1e-05, momentum=0.1, affine=True, track_running_stats=True)\n","              (relu1): ReLU(inplace=True)\n","              (conv1): Conv2d(256, 128, kernel_size=(1, 1), stride=(1, 1), bias=False)\n","              (norm2): BatchNorm2d(128, eps=1e-05, momentum=0.1, affine=True, track_running_stats=True)\n","              (relu2): ReLU(inplace=True)\n","              (conv2): Conv2d(128, 32, kernel_size=(3, 3), stride=(1, 1), padding=(1, 1), bias=False)\n","            )\n","            (denselayer6): _DenseLayer(\n","              (norm1): BatchNorm2d(288, eps=1e-05, momentum=0.1, affine=True, track_running_stats=True)\n","              (relu1): ReLU(inplace=True)\n","              (conv1): Conv2d(288, 128, kernel_size=(1, 1), stride=(1, 1), bias=False)\n","              (norm2): BatchNorm2d(128, eps=1e-05, momentum=0.1, affine=True, track_running_stats=True)\n","              (relu2): ReLU(inplace=True)\n","              (conv2): Conv2d(128, 32, kernel_size=(3, 3), stride=(1, 1), padding=(1, 1), bias=False)\n","            )\n","          )\n","          (transition2): _Transition(\n","            (norm): BatchNorm2d(320, eps=1e-05, momentum=0.1, affine=True, track_running_stats=True)\n","            (relu): ReLU(inplace=True)\n","            (conv): Conv2d(320, 160, kernel_size=(1, 1), stride=(1, 1), bias=False)\n","            (pool): AvgPool2d(kernel_size=2, stride=2, padding=0)\n","          )\n","        )\n","        (2): Sequential(\n","          (dblock2): _DenseBlock(\n","            (denselayer1): _DenseLayer(\n","              (norm1): BatchNorm2d(160, eps=1e-05, momentum=0.1, affine=True, track_running_stats=True)\n","              (relu1): ReLU(inplace=True)\n","              (conv1): Conv2d(160, 128, kernel_size=(1, 1), stride=(1, 1), bias=False)\n","              (norm2): BatchNorm2d(128, eps=1e-05, momentum=0.1, affine=True, track_running_stats=True)\n","              (relu2): ReLU(inplace=True)\n","              (conv2): Conv2d(128, 32, kernel_size=(3, 3), stride=(1, 1), padding=(1, 1), bias=False)\n","            )\n","            (denselayer2): _DenseLayer(\n","              (norm1): BatchNorm2d(192, eps=1e-05, momentum=0.1, affine=True, track_running_stats=True)\n","              (relu1): ReLU(inplace=True)\n","              (conv1): Conv2d(192, 128, kernel_size=(1, 1), stride=(1, 1), bias=False)\n","              (norm2): BatchNorm2d(128, eps=1e-05, momentum=0.1, affine=True, track_running_stats=True)\n","              (relu2): ReLU(inplace=True)\n","              (conv2): Conv2d(128, 32, kernel_size=(3, 3), stride=(1, 1), padding=(1, 1), bias=False)\n","            )\n","            (denselayer3): _DenseLayer(\n","              (norm1): BatchNorm2d(224, eps=1e-05, momentum=0.1, affine=True, track_running_stats=True)\n","              (relu1): ReLU(inplace=True)\n","              (conv1): Conv2d(224, 128, kernel_size=(1, 1), stride=(1, 1), bias=False)\n","              (norm2): BatchNorm2d(128, eps=1e-05, momentum=0.1, affine=True, track_running_stats=True)\n","              (relu2): ReLU(inplace=True)\n","              (conv2): Conv2d(128, 32, kernel_size=(3, 3), stride=(1, 1), padding=(1, 1), bias=False)\n","            )\n","            (denselayer4): _DenseLayer(\n","              (norm1): BatchNorm2d(256, eps=1e-05, momentum=0.1, affine=True, track_running_stats=True)\n","              (relu1): ReLU(inplace=True)\n","              (conv1): Conv2d(256, 128, kernel_size=(1, 1), stride=(1, 1), bias=False)\n","              (norm2): BatchNorm2d(128, eps=1e-05, momentum=0.1, affine=True, track_running_stats=True)\n","              (relu2): ReLU(inplace=True)\n","              (conv2): Conv2d(128, 32, kernel_size=(3, 3), stride=(1, 1), padding=(1, 1), bias=False)\n","            )\n","            (denselayer5): _DenseLayer(\n","              (norm1): BatchNorm2d(288, eps=1e-05, momentum=0.1, affine=True, track_running_stats=True)\n","              (relu1): ReLU(inplace=True)\n","              (conv1): Conv2d(288, 128, kernel_size=(1, 1), stride=(1, 1), bias=False)\n","              (norm2): BatchNorm2d(128, eps=1e-05, momentum=0.1, affine=True, track_running_stats=True)\n","              (relu2): ReLU(inplace=True)\n","              (conv2): Conv2d(128, 32, kernel_size=(3, 3), stride=(1, 1), padding=(1, 1), bias=False)\n","            )\n","            (denselayer6): _DenseLayer(\n","              (norm1): BatchNorm2d(320, eps=1e-05, momentum=0.1, affine=True, track_running_stats=True)\n","              (relu1): ReLU(inplace=True)\n","              (conv1): Conv2d(320, 128, kernel_size=(1, 1), stride=(1, 1), bias=False)\n","              (norm2): BatchNorm2d(128, eps=1e-05, momentum=0.1, affine=True, track_running_stats=True)\n","              (relu2): ReLU(inplace=True)\n","              (conv2): Conv2d(128, 32, kernel_size=(3, 3), stride=(1, 1), padding=(1, 1), bias=False)\n","            )\n","          )\n","        )\n","      )\n","    )\n","  )\n","  (bimodal_low): BimodalEmbedding(\n","    (bn): BatchNorm2d(384, eps=1e-05, momentum=0.1, affine=True, track_running_stats=True)\n","    (transform_convs): Sequential(\n","      (0): Conv2d(384, 256, kernel_size=(1, 1), stride=(1, 1))\n","      (1): ReLU()\n","      (2): Conv2d(256, 256, kernel_size=(1, 1), stride=(1, 1))\n","      (3): ReLU()\n","      (4): Conv2d(256, 256, kernel_size=(1, 1), stride=(1, 1))\n","      (5): ReLU()\n","      (6): Conv2d(256, 256, kernel_size=(1, 1), stride=(1, 1))\n","      (7): ReLU()\n","    )\n","  )\n","  (bimodal_high): BimodalEmbedding(\n","    (bn): BatchNorm2d(608, eps=1e-05, momentum=0.1, affine=True, track_running_stats=True)\n","    (transform_convs): Sequential(\n","      (0): Conv2d(608, 256, kernel_size=(1, 1), stride=(1, 1))\n","      (1): ReLU()\n","      (2): Conv2d(256, 256, kernel_size=(1, 1), stride=(1, 1))\n","      (3): ReLU()\n","      (4): Conv2d(256, 256, kernel_size=(1, 1), stride=(1, 1))\n","      (5): ReLU()\n","      (6): Conv2d(256, 256, kernel_size=(1, 1), stride=(1, 1))\n","      (7): ReLU()\n","    )\n","  )\n","  (maxpool_low): MaxPool2d(kernel_size=3, stride=2, padding=1, dilation=1, ceil_mode=False)\n","  (rf_low): RecurrentFusion(\n","    (bigru): GRU(256, 256, batch_first=True, bidirectional=True)\n","  )\n","  (rf_high): RecurrentFusion(\n","    (bigru): GRU(256, 256, batch_first=True, bidirectional=True)\n","  )\n","  (classifier): Classifier(\n","    (relu): ReLU(inplace=True)\n","    (lin1): Linear(in_features=1024, out_features=1024, bias=True)\n","    (classifier): Linear(in_features=1024, out_features=1, bias=True)\n","    (drop): Dropout(p=0.5, inplace=False)\n","  )\n",")\n","Evaluating...\n","Running test, Processed 12 of 64 Saved /mnt/gs/dynamic-chart-vqa-train-data/experiments/PreFil_Model_2/results_test_10.json\n"]}]},{"cell_type":"markdown","source":["### Inspect the Prediction Results"],"metadata":{"id":"wYC8K45Db5Tf"}},{"cell_type":"code","source":["#down
…
